electric/regnet.pt (torch_old, 1067 bytes, 3 tensors)

hidden.weight f4 [18, 2]
000000 f7 c1 18 3f ae 1b 00 3e 7f 1c 90 3e 2e dd 99 3e
       0.59670967 0.12510559 0.2814674 0.3005156
000010 8b 30 75 3f dc 22 96 bf 46 75 09 bf c6 27 7c 3d
       0.95777196 -1.1729388 -0.5369457 0.06156137
000020 38 44 e6 3d f4 eb 4c bf da b3 56 3e 05 c9 13 3f
       0.112434804 -0.80047536 0.20967045 0.57728606
000030 34 52 30 be 34 b8 16 3e 51 8a 88 bf c0 42 a0 3e
       -0.17218858 0.14718705 -1.0667211 0.31300926
000040 60 d0 bf bc 00 30 b3 bd 19 7c 1f bf bb 4c 53 bf
       -0.02341479 -0.0874939 -0.62298733 -0.82538956
000050 c0 11 86 3f d1 90 ac bc be 8a 8f bf 31 bb a0 be
       1.0474167 -0.021065148 -1.1214216 -0.31392816
000060 c2 d9 39 3f ef 57 a7 bf 42 85 5e 3f 2d 9d 50 3e
       0.725979 -1.307371 0.86922085 0.20372458
000070 b9 f4 e7 3d 1e c3 4e bf c1 b0 0d bf 2d 54 b3 bd
       0.11325974 -0.80766475 -0.5534783 -0.0875629
000080 4d ef 17 bf bb 6d c9 be fa 0b a3 3e 08 2a 39 3f
       -0.5934952 -0.3934153 0.31845075 0.7232976

hidden.bias f4 [18]
000000 4a d7 94 3f 69 a8 9d 3e fa 8d 8e bf e2 69 10 be
       1.1628201 0.3079255 -1.1137078 -0.14102891
000010 f2 7e 04 3f fa 7b 0e bf 92 bc 11 bf ce ea 61 be
       0.51756203 -0.55657923 -0.5692836 -0.22062227
000020 90 e8 01 bf 69 4c 45 bf e1 02 97 3e 70 c7 a2 bf
       -0.5074549 -0.7706972 0.29494384 -1.2717113
000030 4b 4c 04 3f eb 5e 00 3f 75 c1 05 3f 41 b2 43 be
       0.51678914 0.50144833 0.52248317 -0.19110967
000040 2e 40 5d bf 6a 5c 49 bf
       -0.86426055 -0.7865664

predict.weight f4 [1, 18]
000000 90 36 81 bf 28 0b 88 3e 4c 16 dc 3f f0 fb 81 3e
       -1.0094776 0.26571012 1.7194304 0.25387526
000010 2c 21 4b 3f 48 36 39 3f f2 6d a5 3d 18 79 fe 3e
       0.7934749 0.7234845 0.08077611 0.49701762
000020 50 88 48 bd 74 fc 41 3f c7 d6 43 3f cb e1 8b bf
       -0.048958123 0.7577584 0.764996 -1.0928282
000030 0f c3 8e bf 6e 69 1f 3f e0 32 4f 3f 1c d7 55 3e
       -1.1153277 0.6227025 0.80937004 0.20882839
000040 51 4e 16 bf 4e 3b 4c 3f
       -0.5871325 0.7977799
