electric/regnet1.pt (torch_old, 1107 bytes, 3 tensors)

hidden.weight f4 [18, 2]
000000 1f 09 30 bf 68 1c ec 3c a7 cd 10 3f 52 59 26 be
       -0.6876392 0.028822139 0.565638 -0.1624501
000010 a2 bd 05 40 b1 d0 f1 bf 95 3b f4 3c 66 b2 0c bd
       2.0896993 -1.8891813 0.029813567 -0.03434982
000020 48 aa 13 c0 89 72 c9 3e 3c 7c 92 3f cf 3a b3 bf
       -2.3072681 0.39345196 1.1444163 -1.4002322
000030 9e c0 01 c0 2d f2 ba 3f df 09 29 3f 6a 9d e0 3e
       -2.0273814 1.4605156 0.6603069 0.43870097
000040 ac fb c2 3f c5 41 f6 bf b6 3b c2 3e d5 71 17 bb
       1.5233054 -1.9238821 0.3793618 -0.002310862
000050 9d a8 10 b9 b5 1c 67 3f 7c 2e 04 3f ce d1 e3 3e
       -0.00013795723 0.9027818 0.5163343 0.44496006
000060 b1 02 fb 3f d4 04 ed 3e 55 8b 4e bd 29 67 28 bf
       1.9610196 0.46292746 -0.050425846 -0.6578241
000070 35 4e 9a b9 1f 41 97 3f 7f ff 20 bf 39 7d dd 3c
       -0.00029431438 1.1816748 -0.62889856 0.02703725
000080 00 6c 3d be a2 0b 48 3e b5 a4 9f 3f 2a 82 c9 bf
       -0.1849823 0.19535688 1.247214 -1.5742848

hidden.bias f4 [18]
000000 92 30 73 3f a0 54 ea 3d dc 5e 46 bf e7 59 99 3c
       0.9499599 0.11441922 -0.77488494 0.018719627
000010 f6 ec 2e bf 0d 1b aa bf a0 46 0f be 99 b9 90 3f
       -0.68330324 -1.3289505 -0.13991785 1.130664
000020 a1 2c e1 be 7d 1e ea bd 43 d3 23 bf 91 34 93 3e
       -0.43979362 -0.114315964 -0.63994235 0.28751042
000030 95 4d ec bf 02 9f 60 3d fe 85 56 bf 32 c2 5e 3f
       -1.8461176 0.05483914 -0.83798206 0.8701507
000040 de 10 c0 3d da b6 b8 be
       0.09378217 -0.36077005

predict.weight f4 [1, 18]
000000 c0 aa 7c bf 93 aa 98 3e 9a 76 d8 bf 5c 22 42 3c
       -0.98698044 0.29817638 -1.6911194 0.011849012
000010 f8 4d 5b 3f f7 d2 03 40 9e 12 13 3f 7b 7c af bf
       0.85665846 2.0597513 0.5745028 -1.3709863
000020 d0 27 3f 3f 68 c3 33 be 9d f3 9c 3e 38 74 30 3f
       0.74670124 -0.1755501 0.30654612 0.68927336
000030 0e 41 3d 3f 01 4a d6 be 1a 22 cd 3e 92 3b 67 bf
       0.7392739 -0.41853335 0.4006508 -0.9032527
000040 1d 9e b9 3d c9 26 1c 3f
       0.09063361 0.6099668
