electric/regnet2.pt (torch_old, 1051 bytes, 3 tensors)

hidden.weight f4 [18, 2]
000000 c3 13 83 be fc 1a 40 3e 6e 87 7c bf ba 56 45 be
       -0.25601014 0.18760294 -0.9864415 -0.19271365
000010 52 1b a5 bd cb d2 12 3f 20 24 d8 3d 70 85 33 be
       -0.080618516 0.57352895 0.10553765 -0.17531371
000020 65 e8 96 be ac 72 38 3e d3 f6 dc bf 99 a9 41 3f
       -0.29474178 0.18012494 -1.7262825 0.7564941
000030 ff 72 bd bf 0e 96 63 3f 1b be 8e be a4 a2 4e 3f
       -1.4800719 0.8890084 -0.27879414 0.8071692
000040 b4 84 12 be d9 0a 7d be 28 e8 f0 be a6 0a 68 bf
       -0.14308435 -0.2471117 -0.4705212 -0.9064125
000050 26 51 5a be 8c 7a bc be 4b 57 30 be d3 43 64 3f
       -0.21320018 -0.36812246 -0.172208 0.8916599
000060 6d da bf 3e 07 28 58 3e 87 3a c8 3e 56 77 9f 3d
       0.37471333 0.21109019 0.39107153 0.077864334
000070 b3 09 ad 3e 26 c0 93 3e 86 32 a2 3f 8e 30 e0 be
       0.33796462 0.28857535 1.2671669 -0.43787044
000080 f8 01 9e 3d a2 9a 3b 3f 73 a9 c6 3e 70 b9 b7 bf
       0.07715219 0.73282826 0.38801154 -1.4353466

hidden.bias f4 [18]
000000 3c 7f 22 bf 99 0a ac bf 23 94 1d bf 3c bf 50 be
       -0.63475394 -1.3440734 -0.61554164 -0.2038545
000010 f9 44 06 3f b2 9e 01 c0 16 e0 bb bf 4e 4b 30 3f
       0.52448994 -2.025311 -1.4677761 0.68864906
000020 6d 73 0d 3f ed ea 65 bf cf bb 52 3f ad 90 68 bf
       0.5525425 -0.89811593 0.82317823 -0.9084576
000030 32 07 21 3f 0a c0 03 3f e6 88 58 bf d7 30 8d bf
       0.62901604 0.51464903 -0.8458389 -1.103053
000040 45 de 0f 3f 36 65 e5 bf
       0.5619853 -1.7921512

predict.weight f4 [1, 18]
000000 d5 7f 02 3e ae 25 99 bf 96 69 39 3f 32 16 e0 3d
       0.12744077 -1.1964624 0.72426736 0.109417334
000010 8a e8 57 bd d5 9d 0f 40 38 08 e1 3f 9c ee 53 bf
       -0.052712 2.2440083 1.7580633 -0.82785964
000020 53 9f d4 be 65 68 86 3f 1e 8b 53 bf 50 23 8c 3f
       -0.41527805 1.0500609 -0.8263415 1.0948277
000030 cb 3a f1 be 59 ce 06 bf 19 6a 2a bf 9f 70 b4 3f
       -0.47115168 -0.5265861 -0.6656814 1.4096869
000040 71 ad be 3e 83 df fb bf
       0.372417 -1.9677585
