django_pro/electric/regnet1.pt (torch_old, 1051 bytes, 3 tensors)

hidden.weight f4 [18, 2]
000000 1a 56 ac 3d 90 4f 93 be 96 90 31 c0 90 84 12 3f
       0.0841486 -0.2877164 -2.7744498 0.57233524
000010 66 02 dc bf 6a 30 a6 3f 2e 8a 12 40 f8 0b dd bf
       -1.7188232 1.2983525 2.2896838 -1.7269278
000020 b8 89 99 3f 39 13 8f 3f 2c 40 b9 3f 63 49 63 c0
       1.1995153 1.1177741 1.4472709 -3.5513542
000030 f6 4d a6 bf fe a6 52 bf 6e 8d da 3f 21 7d 00 bf
       -1.2992542 -0.8228606 1.7074411 -0.5019093
000040 e1 40 1e bf d6 77 73 3f 36 8a 90 bf 33 3f f2 bf
       -0.6181775 0.9510473 -1.1292179 -1.8925537
000050 8e 9d 99 3d 0d 43 82 be 57 30 48 3f 1b 19 09 bf
       0.07500754 -0.2544178 0.7819876 -0.5355393
000060 a3 7c 38 c0 4d ed 09 40 e2 57 84 bf 01 aa 88 3e
       -2.8826072 2.1551087 -1.033932 0.26692203
000070 21 35 57 3e d6 73 77 be 80 0d 4d 3d 6a 81 5c be
       0.21016361 -0.24165282 0.050061703 -0.21533743
000080 40 9e 7c bc 78 51 82 3d 1a 39 a0 3d 18 f5 8a bc
       -0.015418589 0.06363195 0.07823391 -0.016962573

hidden.bias f4 [18]
000000 11 19 29 3e 72 a7 d1 bf ba 1f 6b 3f 6b 64 50 3f
       0.16513468 -1.6379225 0.91845286 0.81403226
000010 38 58 c4 bf 42 5a 1a c0 6f 9a 52 c0 84 a0 b1 3e
       -1.5339422 -2.411759 -3.2906759 0.34692776
000020 f2 d5 1f 3f d0 9e 38 c0 5c 27 16 3e b4 f1 f6 3e
       0.6243583 -2.8846931 0.14663452 0.4823128
000030 10 0f 15 bf ac 92 5f be 00 bd 08 3e 10 0c db be
       -0.5822611 -0.21833295 0.13353348 -0.4278264
000040 77 82 99 be 52 6c 3d 3d
       -0.2998235 0.04624588

predict.weight f4 [1, 18]
000000 3b bb 60 3e 0e df 7d 3f 9e d9 84 bf e6 b3 c6 bf
       0.21946423 0.9916848 -1.0378911 -1.5523651
000010 d1 59 49 3f e5 e5 9e 3f 6b 96 8d bf 81 c2 6b 3f
       0.78652674 1.2413908 -1.1061529 0.92093664
000020 e2 f3 30 bf a4 b8 86 bf 1d 03 47 3e 60 b3 07 3f
       -0.69122136 -1.0525098 0.19434781 0.5300808
000030 7c 40 4a 3f ff 9f 94 3e 70 db 2a 3e 14 30 05 bd
       0.79004645 0.29028317 0.16685271 -0.032516554
000040 90 07 70 bc 1b 03 5b 3d
       -0.014650241 0.05346976
